tools/biobb_pytorch/test-data/ref_output_model.pth (torch, 953930 bytes, 16 tensors)

encoder.0.weight f4 [230, 306]
00000000: 1efc 393d 0be4 b0bc 356b a1b9 7def 053d
00000010: 6835 1abd 557c 083d a61a 86bc 27c8 293d
00000020: 0237 9f3b e939 21bb 2acb 003d 7819 6fbb
00000030: 770c c03c 3bed 41bb 6bfc 46bc cc01 963b
00000040: 16e1 043d 8734 c7bb 0656 833d 3057 423d
00000050: 3b74 e0bc 6bff 90bc 73aa a63c bac0 fabc
00000060: 854d bbb9 4eac 033d d196 fd3c 601d 553d
00000070: 38a3 dabc 2536 023d 16a7 1b3d 9596 aa3d
00000080: ff76 033d 0386 f3bc 2d9c d1bc 4690 00bd
00000090: 101e 953d d216 983c 99c1 be3c b188 c6bb
000000a0: d87d ad3d 6b22 d9bc d289 783d 92f3 023d
000000b0: 5779 febc d5d8 3d3d 2c73 5f38 5508 9d3c
000000c0: 2dca 95bb edad b03c 7421 5dbd 5c87 9ebc
000000d0: 6c12 5f3d 9943 66bc 5704 803d 514c 853d
000000e0: c69e 50bb 9686 11bd 1b15 3f3d 05ff 5f3c
000000f0: 0737 0bbd 7b5e 513d 0c86 073d 08b5 5c3d
00000100: dfc8 a8bc 2789 22bc f6b0 e7ba ac08 933c
00000110: 50a0 3dbd 8c9c 2abd cda6 403d ade3 97bc
00000120: 5ccd da3c 2262 923c ab2c 6b3c ca0f 323c
00000130: e174 0e3d c51f bf3c 0d90 63bd 6ddb 403d
00000140: 021e 37bd 908d 54bd 4f0f b93c 7bdf 2fbc
00000150: 53d6 ef3c 4471 66bc d876 54bd 4ee4 2d3d
00000160: 4c88 223c 1594 ff3c b591 ed3c 8be1 c1bc
00000170: 4cb2 3a3c 7db5 dc3c cd23 a0bc 3db5 07bd
00000180: 6420 f83c d923 083d 6680 ebbc 6d24 f6ba
00000190: 2ec6 a03d 4e62 78bc 32c0 2d3d a955 473d
000001a0: 1d68 37bd 507c 29bd 15ba a13d 0e80 4cba
000001b0: a601 403d 3ce0 123d 7445 683c 0f58 423d
000001c0: dc5c 9e3d 8cd6 28bd bd48 a53b 138a 6f3d
000001d0: 6cd7 1b3d 9f56 e23c ce07 d3bc 5a54 37bd
000001e0: 78ee 32bd 40ca bc3c d334 4f3d 2010 37bd
000001f0: dbc3 423d 3a62 1cbd c834 50bd 01ab 113a
00000200: e7ee e43c 2935 6c3d 86d4 b3bc 82c9 453c
00000210: 0455 503d 77c1 413d d9f9 103d 4420 123d
00000220: d1d6 533d 3268 483c 233f 3cbd d13e 18bd
00000230: f822 e8bc 69c5 2fbc 2357 d2bc 74d8 723c
00000240: b6ba 773c e6f1 43bb 166f 5f3c 4c07 9d3c
00000250: e486 253d 9f9e 0c3d 3881 d1bc 9497 6a3d
00000260: 3a29 12bc 6184 83bb 84b9 59bd 7fff 29bd
00000270: 980d 08bd f85b 02bd 48ed 173d 006b 82bc
00000280: a2a2 42bd f74d 873c cb3a c03c c1d8 1c3d
00000290: fa00 fdbc d2e7 f03b 6dd5 b9bc c3c5 75bc
000002a0: bac2 4ebd 1fe3 c6bc 1f70 8ebc 36b3 b03c
000002b0: 86e7 973c 2f14 473c b93c 513d 2b16 7c3d
000002c0: 1ee0 143d 5653 a73a 9e34 cebc b70d 283d
000002d0: 15ce a7b9 a509 3d3c 08f7 57bd cb84 6d3b
000002e0: c0c1 bfbc 03b2 563d 3217 41bd 0280 f9bc
000002f0: 7863 543b 7c9c 88bc 856d 203d 4e46 81bc
00000300: 5245 b3bc 7f93 a93c a345 2a3d fccd 3dbd
00000310: d5e2 113d aa6f 0e3d e4af 5c3d 8134 1fbd
00000320: fd3d 423c 7cd9 4bbd 897e 513d f683 c7bc
00000330: 1ca5 e23c 7611 2a3c 5e1a 01bc c2ed 33bb
00000340: f5fc 983c d400 c53c acc3 ee3b 36e1 ca3c
00000350: 32cf 64bd bb2d 2b3d 5ed0 6e3d 6b1b 1f3d
00000360: bba4 273d 1ef5 08bd b92e b2bc ecc0 483d
00000370: b9e1 21bd 00df 4f3d 8906 35bd f524 13bd
00000380: 5fb9 033d c320 35bd 369a c6bb 0cc5 2e3d
00000390: 28be 303d 3b8a 7c3d 03fe 8bbc 6e56 43bd
000003a0: 42b0 7a3d addd 7cbc bee9 efbc 3899 813c
000003b0: fa11 2ebd c2f0 0f3d fb07 0b3d 493a 50bd
000003c0: e8a1 59bd 4ee2 643a 8068 a53c 2651 0ebc
000003d0: 07f0 a4bc bf46 b8ba 1ce2 5cbd 725f ccbc
000003e0: 27b3 1ebd 9361 5b3d d540 833d 149c aabc
000003f0: 2b3a 843c c967 4b3d 64d4 c33b f5c4 20bc
0.045406453 -0.021593114 -0.00030788188 0.032699097 -0.03764859 0.033321697 -0.016370129 0.041450646
0.0048588524 -0.0024601168 0.031443752 -0.0036483686 0.023443444 -0.0029590863 -0.012145142 0.004577851
0.03244122 -0.00607926 0.06412892 0.04744643 -0.027399173 -0.017699918 0.020344948 -0.030609477
-0.00035725176 0.032146744 0.030955704 0.052029967 -0.026689157 0.031789917 0.038001142 0.083295025
0.032095905 -0.029726988 -0.025587166 -0.03138759 0.072811246 0.01856557 0.023285674 -0.0060587754
0.084712684 -0.02650567 0.06067831 0.031970568 -0.031063719 0.046349365 5.3274605e-05 0.019169012
-0.0045712204 0.02156731 -0.05398698 -0.019351654 0.054460928 -0.0140542025 0.06250828 0.06508697
-0.0031832918 -0.03552874 0.046650987 0.013671641 -0.033988025 0.051115494 0.03308682 0.053883582
-0.020603595 -0.009920395 -0.001767664 0.017948471 -0.046295464 -0.0416532 0.047034074 -0.018541181
0.026709251 0.017869059 0.014353911 0.010868022 0.034779433 0.023330579 -0.0555573 0.04708426
-0.044706352 -0.051892817 0.022590308 -0.010734434 0.029277002 -0.014065091 -0.05187115 0.042454056
0.009920191 0.03119854 0.029000143 -0.023667118 0.011395048 0.02694201 -0.019548321 -0.033131827
0.030288883 0.033237312 -0.028747749 -0.0018779166 0.078503 -0.015160156 0.04241962 0.048665676
-0.044777025 -0.04137832 0.078968205 -0.0007801064 0.046876572 0.035858378 0.014176715 0.04744726
0.07732555 -0.041220233 0.0050440715 0.058481287 0.03804724 0.027629195 -0.025760558 -0.04475818
-0.043684453 0.023045659 0.050587486 -0.044693112 0.047550064 -0.038179614 -0.050831586 0.00055567926
0.027945949 0.057667885 -0.021951925 0.012071969 0.050862327 0.047303643 0.035394523 0.035675302
0.051718537 0.012231873 -0.04595865 -0.03716928 -0.028336987 -0.010728219 -0.025676316 0.014822114
0.015120199 -0.0029898821 0.013637325 0.019168518 0.040411845 0.03433096 -0.025574312 0.057273462
-0.008920962 -0.0040135835 -0.053155437 -0.041503426 -0.03321609 -0.03182599 0.037091523 -0.015920162
-0.04751838 0.016516669 0.023465535 0.03829265 -0.030884255 0.007351854 -0.022684777 -0.015000763
-0.050478674 -0.024278222 -0.017387448 0.02156983 0.018543016 0.012150808 0.0510833 0.06154458
0.036346547 0.0012765925 -0.025171574 0.041028704 -0.00032006265 0.011537944 -0.05272582 0.003624248
-0.023407817 0.05241586 -0.04714126 -0.030456547 0.003240792 -0.01667618 0.039166946 -0.015780594
-0.02188364 0.020700214 0.041570317 -0.04633902 0.035616715 0.03477446 0.05387868 -0.03886843
0.0118555995 -0.049767956 0.051146064 -0.024354916 0.02766662 0.01038014 -0.007879822 -0.0027454947
0.018675307 0.024048246 0.0072865095 0.024765592 -0.05586166 0.04179166 0.058304183 0.038844507
0.040928584 -0.033436887 -0.021750795 0.04901211 -0.039521907 0.05074978 -0.044195686 -0.035923917
0.032159206 -0.044220697 -0.006060864 0.042668387 0.043150097 0.061655264 -0.017088896 -0.047689848
0.06120325 -0.015433711 -0.029286262 0.01582013 -0.042497613 0.035141714 0.033943158 -0.050836835
-0.05313292 0.0008731232 0.020191431 -0.0086863395 -0.020133985 -0.001405917 -0.053926572 -0.024947856
-0.03874507 0.05355985 0.0640885 -0.020826377 0.016141018 0.049659524 0.0059762467 -0.009812583

encoder.0.bias f4 [230]
00000000: 38a7 4a3d fab1 febc cba6 4f3d b961 0dbd
00000010: f35d 6dbd a884 273d 6fcc 21bd 6a49 cfbc
00000020: 2886 15bd 999f bfbc e1c2 703d fefd 013d
00000030: 46f4 6c3b 0c38 923d cfb3 21bd 7e59 0b3d
00000040: 4805 3fbd 7f4e ac3a 1674 5a3b 2fff 223c
00000050: 4cf4 f73c 9118 f83c 4275 fd3c 316e 4d3d
00000060: 062b 413d 447b 3bbd 5d7b 5dbd c342 373d
00000070: 200c 8fbc 91aa 4dbd c110 7c3d ec32 223d
00000080: 68fa 903d eace 893d e114 b23c df6b e93c
00000090: 1826 e53c be58 673d fb67 f3bc 0368 dfbb
000000a0: 9e37 e2bc c5ac 1f3d 58df 583d 0387 bb3c
000000b0: 4fff 74bc 5d78 393d ffc8 87bb 7c2d 66bd
000000c0: e858 6c3c 25bc 0a3c 8c8b a93b feae 2abd
000000d0: 929b 253d c7f1 543d 072d adbc 22c2 e8bc
000000e0: 12bb 71bc 9120 acbc 8c25 45bd 34fa 483d
000000f0: 7314 583d 38d9 f7bc fd62 3f3d f29c 89bc
00000100: c275 b93c 2522 5f3d 8978 21bd 5782 9ebc
00000110: 2978 bcbc a5ca 0fbd b0b0 e23c 13b9 ee3c
00000120: 0350 a53d d93b 653c fba1 793c 11dc 31bd
00000130: 8746 583d f2ef b63b bf40 983d 296a dd3c
00000140: 740b 483d 21c9 c5bb e69b 353b 21c3 6d3c
00000150: 8b93 123c b545 90bb d42d 8c3d 2d64 1bbd
00000160: 9a19 a4bb 1ca7 493d 345e 65bc b8ab e13c
00000170: b24f 303d 45d4 3cbd 79f6 e93c 8114 28bd
00000180: fd35 963d b66d b93a a512 26bc 6b03 a53c
00000190: b217 8abc a109 ef3b c8cc 903d 666a 873c
000001a0: 9801 9a3d e3e5 2bbd 3518 41bd 6484 433d
000001b0: 3254 2f3d 156c 663c b22a 853d 4ac4 293d
000001c0: 61a6 4b3b b2ee a5bb 10fd 4dbc 5e15 e9bc
000001d0: 2a21 28bc 3570 ab3b d8c5 cb3c 8289 82bc
000001e0: 15d9 2b3d 965b 993c 8141 753d f6e5 903b
000001f0: 0e10 503d 6216 043c 100c 893b d985 b8ba
00000200: c7c6 093d f35e 81bb 71bb 2a3d 4ec2 09bd
00000210: 1727 1cbd 0a5b 4ebd 4097 803a 4584 53bd
00000220: 6104 653b a919 273d 2d1a d83c 2364 5abd
00000230: c80a 95bc edfc 443b 5d90 bbbc cf56 5f3d
00000240: ea87 813d 1183 523d 061a a7bc 6a04 573c
00000250: fce0 8dbc 9fcc 29bc e26c 103c 415d 76bc
00000260: a0b1 f8bc 1dc2 8c3c 1ace 28bc 75ae 283d
00000270: f4dd e93b 9e0c 94bc 3455 103b 94d0 34bd
00000280: e72c f3bc b66c 22bd ed81 653d 211c 873d
00000290: 7e81 35bd c294 2cbd bd45 f9bb d26d 6dbd
000002a0: faef 58bc 89df a8bb 84d8 523a 731b d4ba
000002b0: e67f f43c 356b f93c 450b 283b 0efc ec3c
000002c0: e57f 213d 5a0c cbbc e139 103d 92ae aa3d
000002d0: b014 3abd 97b8 f03c 2bbe 283d 5c15 883d
000002e0: 4c8d 843c 566d 10bc 1e57 1f3c d25f a5bc
000002f0: 90be 313d 76f0 873d 513f 3d3d 7c80 e43c
00000300: 8548 6bbd 7acf ce3c 4402 3bbd abba 44bd
00000310: 7131 323b 42f9 1c3d 92e5 3cbb 0870 603d
00000320: 8cff e6bc aacb 41bd a743 86bc f736 0ebc
00000330: 7e7f a53c 0c87 483d 9c4c d2bc fea2 933d
00000340: 2994 f73a 4d1d ebbc 18c1 a33d 943b 63bd
00000350: 600f dc3b 45f2 33bd 8b89 d53c f7d4 1ebb
00000360: 943d 29bd b2a4 713d 9835 1dbc be73 1dbd
00000370: 7b0a 1cbd 5e9e b63c b870 7f3d 28fb 41bc
00000380: 96cc 063c e995 883d 340c 5cbc fd72 d53c
00000390: ae75 613c 39f6 083d
0.04947588 -0.031090725 0.050696176 -0.034517024 -0.057950925 0.040897995 -0.039501604 -0.025303561
-0.036504894 -0.023391532 0.0587796 0.031736366 0.003615634 0.07139596 -0.03947812 0.034020893
-0.046635896 0.0013145952 0.0033333353 0.009948536 0.030267857 0.030285152 0.030939702 0.050153915
0.04716017 -0.045771852 -0.054072727 0.044741403 -0.017461836 -0.050211493 0.061539415 0.039599344
0.07079011 0.06728919 0.021738471 0.02849382 0.027972266 0.056481116 -0.029712668 -0.006817819
-0.027614411 0.038983125 0.052947372 0.022891527 -0.014953448 0.045280803 -0.0041438336 -0.05619572
0.014425494 0.008467709 0.005174106 -0.04167079 0.040431567 0.05198839 -0.021139635 -0.028412882
-0.014754074 -0.021011623 -0.04813151 0.049066737 0.052753877 -0.030254945 0.046725262 -0.01679847
0.02263916 0.054475922 -0.039421592 -0.01934926 -0.023006516 -0.035105366 0.027672142 0.029140985
0.08071902 0.01399132 0.015236373 -0.043422762 0.052801635 0.005582803 0.07434224 0.02702816
0.048839048 -0.0060359393 0.002771133 0.014511854 0.00894631 -0.004402841 0.068446785 -0.037937332
-0.0050079348 0.049231634 -0.013999511 0.027547702 0.043044753 -0.046100874 0.02855991 -0.04103518
0.07334516 0.0014147076 -0.010136281 0.020143231 -0.016857002 0.007294849 0.07070309 0.016530227
0.07519835 -0.041967284 -0.047142226 0.04773368 0.042804904 0.014063855 0.06502284 0.04144696
0.0031074511 -0.005063855 -0.012572542 -0.028452571 -0.010261813 0.005231882 0.024874613 -0.01593471
0.041955072 0.01872043 0.059876923 0.0044219447 0.05079656 0.008061977 0.004182346 -0.0014077976
0.033636834 -0.0039480864 0.041682664 -0.03363257 -0.038123216 -0.05037979 0.0009810701 -0.051639814
0.0034945237 0.040795956 0.02637967 -0.053318154 -0.018193617 0.0030057982 -0.022895986 0.054526147
0.06324752 0.051394526 -0.020398151 0.013123611 -0.017319195 -0.010363727 0.008815022 -0.015036882
-0.030358136 0.017182404 -0.010303045 0.041182 0.0071370546 -0.018072423 0.0022023441 -0.044144228
-0.029684497 -0.039654456 0.05603211 0.06597162 -0.044312946 -0.042134054 -0.0076071904 -0.05796606
-0.013240809 -0.0051536006 0.00080431276 -0.0016182497 0.029846143 0.030446628 0.0025641483 0.028928783
0.03942861 -0.024786163 0.035211448 0.08334078 -0.045429885 0.029384894 0.041196983 0.06644699
0.016180657 -0.00881513 0.00972536 -0.020187292 0.043394625 0.06637661 0.04620296 0.027893297
-0.057442207 0.025245417 -0.045656458 -0.048029583 0.0027190114 0.03832365 -0.0028823358 0.05479434
-0.028198026 -0.04731337 -0.016389681 -0.008680097 0.020202395 0.048956916 -0.025671296 0.07208823
0.001888876 -0.028700495 0.07995814 -0.05547674 0.0067157 -0.043932218 0.026066562 -0.0024235824
-0.04131849 0.058994956 -0.009595297 -0.03844046 -0.038095932 0.022292312 0.062363356 -0.0118396655
0.008227488 0.06669218 -0.013430644 0.026055807 0.013760967 0.03343794

encoder.3.weight f4 [154, 230]
00000000: 0e19 f0bc 8ae4 dd3c 66b5 633d da12 9abd
00000010: c2a1 103d 7551 e8bc b8ec e5bb ed73 0a3b
00000020: b5b0 403d 519c f63b f8a2 16bd c05f 0ebd
00000030: 911d fbbb 7e94 243c be4c 6f3d 546f 793d
00000040: 945d 183d d494 63bd 8000 39bd 4b87 2ebd
00000050: e9ea 853d 8f93 823d cabb 48bd bb19 74bd
00000060: fff3 903c b384 9ebc af97 d4b9 af5b 6bbc
00000070: ae12 60bc 9e1c 85bd f3c9 3cbd a6da 813d
00000080: 7fe2 3a3d bc65 a4bc e7f4 f8bb 6653 f93c
00000090: 1bb5 df3c 78f8 423d 8a1e c4bc 3a9b 163d
000000a0: 019f 3d3d ba7b c4bc e022 2dbc 0eff 86bd
000000b0: 793d 5ebd 436b b53b 7100 0f3c f7d0 1bbd
000000c0: 82e3 54bc 40dc 5b3d 789d 7dbd 6458 69bd
000000d0: 2e47 9bbd 9f5e 9e3d 1336 b5ba 25b5 74bd
000000e0: 31e1 193d 0c15 a83a 7528 563d b6b5 41bb
000000f0: c78f aa3c 8ed0 79bc 7a19 0abd 4152 2bbd
00000100: 89b6 d83c d9d0 003d f677 443a 7bfa 83bd
00000110: 5cd3 90bd 514e 84bc 53d6 08bd ed8a 7cbd
00000120: 1406 afbb 5865 2a3c 18c8 353d 63cc 833d
00000130: cadb 6dbc a878 8a3c 3209 56bd e8a8 4bbd
00000140: 0a60 363d 82d7 60bd e45b 143d a4df 033d
00000150: 8ab5 1cbd 4653 273d c1f9 773d b0e7 253c
00000160: f2fa fb3b 8698 c53c 1a41 98bc 04ba f13c
00000170: 974b 133d 5a0d 12bd 5717 85bd 6df6 ecbc
00000180: 3c95 693d 5cc5 b0bc 6cac 263d 3d27 1c3d
00000190: e68d cdbc fbc2 8abc c767 bc3c f2aa 833d
000001a0: b0a7 1d3d 4e16 4dbd b48b ea3b a433 a4ba
000001b0: ba2d 2d3d b4e3 aebc cb86 c23c 6b01 873d
000001c0: 896e 52bc 1672 75bc 6ed1 a23c 8d57 4e3b
000001d0: 9159 ddbc b451 853d d47d 85bd 1a9a 7c3c
000001e0: 756f 3b3d f414 5dbd ea61 b13c 2b9d 04bd
000001f0: 71c1 2c3c 5928 76bd a591 33bd 2e18 c5bb
00000200: 73cc 0dbd 2b1b f03c 0075 a83c 28b6 883d
00000210: 15b5 303a 2335 eabc d7dd 623d 24c5 2cbd
00000220: 59a6 6c3d 8f16 33bc 8acd 12bd d480 9ebd
00000230: ba50 20bd c2a8 6c3c 5342 0fbd fd18 3fbc
00000240: 1d1d 883d c5af c5bc 62e3 b13c 2ed9 663d
00000250: 19d2 f33b 05bb 35bc 2952 25bb 71b6 08bc
00000260: d3c3 513b 11e1 3e3d 5953 1b3d ebe6 843d
00000270: 4b08 9abb 2954 7d3d 41ae a9bb 7110 3c3d
00000280: 0dce 36bc 4eb1 ebbc 8223 623c 17a0 853d
00000290: c167 60bd 9818 6abd bffc 8a3d d5a8 5bbd
000002a0: 8fbc 943d 6c58 0abd c677 343c 4e83 923d
000002b0: 93f1 66bb 8047 a83c 417f e7bc b889 543d
000002c0: 7c34 c83c a658 cb3a 5fec 23bd 1c2c 753d
000002d0: 9d91 6b3d 4210 9cbc 0d60 083d 3060 4dbd
000002e0: 26c8 d3bc f86c 10bd 77b1 743b 8a5a 813d
000002f0: 7dcb 783d 576a 823b ef04 813d 96db 813d
00000300: 5a7c e4bc a8e2 543d bbc4 913c 8df5 88bc
00000310: 8061 62bc 9250 f13c 18ea 53bd b628 51bd
00000320: f5bb a4bc 9a66 1d3d 6c90 3bbd 480f 253c
00000330: d8fd 01bd 9a7e a93b 94f2 713d 6d89 713d
00000340: 0188 1cbb 2871 dfbc a4a6 7f3d ec1e 4fbd
00000350: 1268 61bb bb06 733d 3107 98bc dc89 25bc
00000360: cffd 68bd 8a47 d3bc 62fd 95b9 9d58 8a3d
00000370: 0649 f63c 2db8 3e3d 6524 a73d af46 8dba
00000380: f3ed 593d eff6 843d 2ac1 cdbc 7321 543d
00000390: 44cb 4a3c 5004 38bb a6bc 663c 33d0 52bd
000003a0: e259 27bc b795 6ebd 7d3d 283d e71a f0bc
000003b0: b62c 393b c5ab 693d 7e9f 65bd 28d9 1a3d
000003c0: 85bb a63d 4846 523d 847b 28bc 3d1c 7c3d
000003d0: e2fd 20bd 5fee efbc b0d3 a1bc 1edf 4f3c
000003e0: 5f69 473d 8cd2 8dbc e6ee d03c 4cd2 df3c
000003f0: 1b0d 5cbb 0e61 27bd da36 1cbc f1c7 5f3d
-0.029308822 0.027086515 0.055592917 -0.07523127 0.035310514 -0.028359154 -0.0070167445 0.0021126226
0.04704352 0.0075259586 -0.036776513 -0.034759283 -0.0076634367 0.010045169 0.058422796 0.060897186
0.037198618 -0.055561855 -0.045166492 -0.042609494 0.06538946 0.06375801 -0.049007215 -0.05959485
0.017694471 -0.019350385 -0.00040548804 -0.014365121 -0.013676329 -0.06499599 -0.04609103 0.06340532
0.04562616 -0.020068042 -0.007597554 0.030435275 0.027308038 0.04760024 -0.023940343 0.03676913
0.046294216 -0.023984779 -0.010567397 -0.065916166 -0.054257844 0.0055364682 0.008728133 -0.03804108
-0.012993695 0.053676844 -0.061917752 -0.05696906 -0.07581936 0.07732891 -0.001382532 -0.059743065
0.037568275 0.0012823655 0.052284677 -0.002955777 0.020820512 -0.015247477 -0.033715703 -0.04182649
0.026454227 0.031449173 0.0007494682 -0.0644426 -0.070715636 -0.016150625 -0.03340752 -0.061655927
-0.0053413007 0.010400139 0.044380277 0.06435468 -0.014517734 0.016903237 -0.052254863 -0.04972163
0.044525184 -0.054893024 0.036220446 0.032195702 -0.038259067 0.0408509 0.06054092 0.010126039
0.007689827 0.02412058 -0.01858573 0.029507644 0.03596076 -0.035657264 -0.06498592 -0.028926099
0.057027087 -0.021578483 0.040691778 0.038123358 -0.025092077 -0.016938677 0.022998704 0.064290896
0.038489997 -0.0500701 0.007157767 -0.0012527597 0.042279936 -0.021348812 0.023745915 0.06592067
-0.012843736 -0.0149808135 0.019875254 0.003148529 -0.027020248 0.06509724 -0.065181404 0.0154176
0.04576059 -0.05397506 0.021653134 -0.03237645 0.010544167 -0.060097072 -0.04384007 -0.0060148453
-0.034618806 0.02930983 0.020563602 0.066753685 0.00067408505 -0.02858979 0.055387344 -0.042180195
0.05777583 -0.010930671 -0.03584055 -0.07739416 -0.039139487 0.014444532 -0.03497536 -0.0116636725
0.06646178 -0.024131665 0.02171487 0.056359462 0.007440817 -0.011091952 -0.0025225973 -0.008344279
0.003200759 0.04660136 0.037921283 0.064893566 -0.0047006956 0.06184784 -0.0051782434 0.045914117
-0.011157525 -0.028771069 0.013802411 0.06524675 -0.054786447 -0.05715236 0.06786489 -0.053627808
0.07262527 -0.033775732 0.011014884 0.07153951 -0.0035239204 0.020541906 -0.028258922 0.05188915
0.024439089 0.001551409 -0.040020343 0.05985652 0.057511915 -0.019050721 0.033294726 -0.05014056
-0.025852274 -0.03526017 0.0037337223 0.06316097 0.060740937 0.003979962 0.06299769 0.06340711
-0.027891327 0.05197397 0.017794004 -0.01671865 -0.013817191 0.029457364 -0.05173692 -0.051064216
-0.020109156 0.038427927 -0.04579203 0.010074444 -0.031736225 0.005172563 0.05906923 0.05896895
-0.0023884776 -0.027275637 0.06241478 -0.0505666 -0.0034394306 0.05933259 -0.018558117 -0.010103669
-0.056882676 -0.025790948 -0.0002860828 0.06755183 0.030064117 0.046562362 0.081612386 -0.0010778512
0.05320544 0.06492411 -0.025116522 0.051789712 0.012377564 -0.0028078742 0.014083063 -0.051468085
-0.010214301 -0.058248248 0.041074265 -0.029309703 0.002825541 0.057048578 -0.056060307 0.037804753
0.08141235 0.051336557 -0.010283355 0.061550368 -0.03930462 -0.029288469 -0.01975426 0.012687473
0.048684474 -0.01731231 0.02550454 0.027321957 -0.0033577147 -0.040864043 -0.009534562 0.05463404

encoder.3.bias f4 [154]
00000000: 8b17 8dbc d677 c33c 3a3a 2a3d 3859 c33c
00000010: d9d4 5d3d 3091 873c 6c44 f63a eb24 03bc
00000020: c629 583d 1cbc 17bd 97fa ef3c df2b cdbc
00000030: 2e8d cd3c 7769 223d c3c6 3abd a765 533d
00000040: 1da7 583d cb92 7fbd 9c64 873d b45d edbc
00000050: 440e 4c3d ebc6 983d 1f5e 0e3d fe6d b3bc
00000060: c674 87bd 9fc1 863d c38b 2ebd 9cc5 283d
00000070: b476 543d 8a48 2a3d ebbf 03bd 863a febc
00000080: a07f b73c 5edc e53c 073d 60bb eca9 61bd
00000090: cd44 65bd b363 eb3b b167 af3c e9a4 253d
000000a0: 9bf0 213c 5531 c9bc ffd8 7cbd 7697 21bc
000000b0: 49cc e33a e896 f53c 7fa0 153d ddd6 c53c
000000c0: 9a38 54bd 9d05 0ebd 05ba 11bd bd21 2e3d
000000d0: f2b3 3f39 37bc 07bd 2af2 153c f65a 2839
000000e0: 9eb9 353d cf67 053d 6cd6 7e3d db0c 96bc
000000f0: 3c06 1fbd 943c 60bd 94ce 4fbd af32 803c
00000100: 2192 3f3d fa85 66bc dfff 3cbd 7656 2bbc
00000110: 4326 843d 9a62 5b3d 6b58 84bc ea50 0c3d
00000120: 4b4d 983b 3cc1 50bc 4995 403d 68db e73b
00000130: aaf3 0abd 9fba 81bc c2d2 e23b f7ec 5b3d
00000140: ade1 463c 9ead bcbb b209 393c 2648 42bb
00000150: 803d 1f3d f690 bfbc e950 dcbc 0e19 393c
00000160: c0b1 46bd 26d2 27bd f45a 10bd 578e 25bc
00000170: 65d0 23bd 0fbc 3e3c 973b 913d 81e0 a33d
00000180: 5084 863d 9e15 a9bc 5832 31bd 7c40 303d
00000190: 7ef1 72bc 9f33 f5bc ec26 a43d 99c5 003d
000001a0: 3c77 4abd c3b7 fc3b 6d3e 123d 1c26 9f3c
000001b0: f5dd 393c c096 7ebd 9070 db3c 8bc5 d23c
000001c0: 5f6d 983d 2865 51bb 762b 62bd 20bc f4bc
000001d0: d178 153d 800b 13bd 1c2d 5b3d 2c53 95bc
000001e0: 1aa5 09bc 98f0 82bd 2cde 83b9 7e35 16bd
000001f0: 6e9e 0d3d c578 a5bb fb45 9f38 5de2 133d
00000200: 5763 323d d332 113d d13f 8abd ad26 a03d
00000210: 62ec 4d3d 2fdf 9d3c 040e be3c edc5 543d
00000220: f6eb 173d bab1 e83c 4831 02bd 2283 73bd
00000230: 2f1b 8a3c 5aa4 f4bc 1125 6cbd b370 09ba
00000240: d2a7 193d 6819 88bd c592 733d f14b 2e3d
00000250: f5c0 f83c ee7d 5b3d 0677 a7bc 7e9e 1bba
00000260: 77eb 90bc a745 fe3c
-0.01722314 0.023860853 0.041559435 0.023846254 0.054158065 0.016548723 0.0018788702 -0.008004407
0.052774213 -0.03704463 0.029294295 -0.025045333 0.025091734 0.03965136 -0.04559971 0.051610615
0.052893747 -0.062395852 0.066109866 -0.028975345 0.049818292 0.074598156 0.03475773 -0.021903034
-0.0661407 0.06579899 -0.042613756 0.04120408 0.051871017 0.041573085 -0.03216545 -0.031033766
0.022399724 0.02805918 -0.0034216063 -0.05509369 -0.055973817 0.007183516 0.021411749 0.040440474
0.009884025 -0.024559656 -0.06173038 -0.009862771 0.0017379607 0.029979184 0.036530014 0.024150306
-0.051811792 -0.034673322 -0.035577793 0.042512644 0.00018282214 -0.03313848 0.009151975 0.00016055614
0.04436647 0.032569703 0.062216207 -0.018316677 -0.038824305 -0.05474527 -0.050734118 0.015649168
0.04677022 -0.014070028 -0.046142455 -0.010457626 0.0645261 0.05356083 -0.016155442 0.034256853
0.004647886 -0.012741383 0.04701737 0.007075716 -0.033923782 -0.015836058 0.006922097 0.053692784
0.012138766 -0.0057580015 0.011293815 -0.0029645055 0.03887701 -0.023384552 -0.02689405 0.011297477
-0.04850936 -0.040971898 -0.03524299 -0.010104737 -0.039993662 0.011641516 0.07091444 0.08001805
0.06568205 -0.02064019 -0.043260902 0.043030247 -0.014828084 -0.029931841 0.08015236 0.031438444
-0.049430117 0.007712336 0.035704065 0.019427352 0.011344423 -0.062155485 0.026787072 0.025728961
0.07442736 -0.0031951163 -0.05521723 -0.029874861 0.036492173 -0.03589964 0.053509817 -0.018228136
-0.00840118 -0.06393546 -0.00025151798 -0.036672108 0.03457492 -0.0050497972 7.594746e-05 0.03610455
0.04355177 0.03544886 -0.06750453 0.07819877 0.05027426 0.019271461 0.023200043 0.05194657
0.037090264 0.02840506 -0.03178528 -0.05945123 0.016858665 -0.029863525 -0.057652537 -0.0005242929
0.03751356 -0.06645471 0.059466142 0.042552892 0.030365447 0.053586893 -0.020442497 -0.0005936398
-0.017690403 0.031039072

encoder.6.weight f4 [78, 154]
00000000: f420 a13d 31ab af3d e444 533c 54d8 04bd
00000010: e36a 1e3d 1466 f43c 7203 3cbc 7b6d f93c
00000020: 5434 9cbd e737 d73b 2de5 383d 934a 953d
00000030: a58d 7cbd 5bd1 823d 1475 87bd 5de6 61bb
00000040: d3fc babc 37a4 803d 3a38 1dbc 43a8 043d
00000050: 68e1 3c3d ab2b e83c e440 9f3d 9953 8dbd
00000060: 2975 423d 3f94 7f3d 8e2b 933c 3a77 843d
00000070: 7727 be3b 744f 753d 3cc3 343d 2235 2dbd
00000080: 5749 febc d5d7 923d ab40 dd3d e2c9 653c
00000090: e61a 803b 2eca 5ebc 194e a2bc b192 803d
000000a0: c707 73ba f74e 38bd 1cf8 babc 992c cd3d
000000b0: ef14 6f3d a218 0e3d 6397 b73d 776e 9bbd
000000c0: 454a 9f3c 6849 0a3d d9f8 90bc 7a4b 623d
000000d0: f4a5 8c3d 36ac c23b e928 ef3c 5c52 1cbd
000000e0: fefc 133d ec78 4c3d 8d37 393d 1e69 1e3d
000000f0: cf8e 96bd 7cc0 373d c9bf 37bb ee3d 53bd
00000100: f05c 13bb b4ec 4fbd afee 98bd edb2 82bd
00000110: e61c 97bd 18f1 5f3d 0dc6 80bd 3420 44bd
00000120: b769 1e3d 8d4f e23c 7da5 85bd 6231 403d
00000130: 2c63 623d d2f3 8bbd 4623 8cbd 1a9f 7e3d
00000140: 46e9 81bd 7997 72bd 8de9 a03c e02b 9e3d
00000150: f3ce 363b 841c f8bb e9ae abbc 4a57 633d
00000160: f5bb 863d f644 c9bc 54fc 70bd 65e0 953c
00000170: e0c5 2abd 82b5 0bbd a299 b63b 0065 3abd
00000180: e674 873d bcfd 30bd fd1a ab3d 7024 5b3d
00000190: 2af8 ca3c 856e aabc ad1c 8b3d c3a8 eb3a
000001a0: ddd6 803c 88fe 0cbd 9661 dabb 36bb 19bd
000001b0: b0f0 87bb cf55 91bd 2ac3 7a3c cb20 8a3d
000001c0: 0139 953d b30a a63d 2cd1 083d 6005 0abd
000001d0: e03b 803b 368a 1b3c ef40 103b 391c 633d
000001e0: 135b 7ebd 5833 dc3c 9bb9 0f3d a528 323c
000001f0: 38d4 8fbd 4590 153d 01ef 9f3d 8a8e 90bd
00000200: b475 c13d 7708 263d 930a 85bd 0040 32bd
00000210: 951a 493d a9f4 cfbc 0def c03d fe11 843c
00000220: e570 9b3d f8a5 98bd 1a8c 06bd 62c0 873c
00000230: b957 2bbd 6f66 633d 47b7 0bbd 4204 073d
00000240: 3f6d 05bc b9c1 053d 53dc 95bd e05a c63d
00000250: f6a5 a3bb 13d1 89bc 5dfd f43b d1db da3c
00000260: 5e0b 00bd 4ffb 703d 70fc f13c 2db2 0fbd
00000270: 1824 223d 2f74 613c af39 8a3d 52cc 293d
00000280: b3d2 063d 9087 21bd 80a7 e83b a064 64bd
00000290: 750a 85bc 9c7b 1fbc abde 61bd 7af7 963d
000002a0: d545 a93c 3362 85bd c7b0 69bd 39f6 24bd
000002b0: 5bc7 55bd e794 07bd 1970 1cbd 130d b33d
000002c0: 6159 91ba fd82 4a3d b974 1f3d 6fd2 dcbc
000002d0: 29ea 68ba 39d0 96bd c821 54bd 4da2 3abd
000002e0: ae15 7e3d 69b4 7bbd c07d 323d ab4c 1fbd
000002f0: 741e 85bd 9af3 2b3d 5a29 0ebd ba1c b33d
00000300: ea3c 0dbc 9892 edbc bb74 7e3d 1404 76bd
00000310: 69ad 833d 8bd8 423d c3f2 893c 1aef 6cbb
00000320: 9899 3dbd da3f 903d 5f5f acbc c6d8 e03c
00000330: 5575 ad3d f6c1 4ebd de40 fbbc c3b8 a53d
00000340: 99a7 e53b 9c28 913b 798a 043d 09be 8fbb
00000350: 49ff aebc 83b6 00bd 5304 cf3c 7103 923c
00000360: bf5f a23d d0b6 20bd d8c5 283d 5dd8 3fbd
00000370: 782a 4c3d 4d97 04bc e441 0b3d c6ae 24bb
00000380: 833b 98bd ce07 78bd 47c3 203d f7b6 9cbc
00000390: 07cf a23d d11e c63d df3b 433d 1fbb b13d
000003a0: 5af4 613c 7d3a 55bd 07ac 9c3d 0960 263d
000003b0: 3079 b1bb 48d6 9cbd 25a7 443d 7dd6 a6bc
000003c0: cefb a13d 637a 95bd 26ec 893d 1c94 f0bb
000003d0: 3ae3 aa3d 9c5e 6c3d b413 57bc b938 af3d
000003e0: f9ee 5ebd 9306 13bd f15b 41bc 23ce af3d
000003f0: 89b5 263d e1e3 2cbd 6b63 99bc 825e 933d
0.078676134 0.08577574 0.012894843 -0.03243287 0.038676154 0.02983383 -0.011475431 0.030447712
-0.07627168 0.0065679434 0.045140434 0.072896145 -0.06165852 0.06387588 -0.06614128 -0.0034469583
-0.022825634 0.062813215 -0.009595925 0.03238703 0.0461134 0.028341135 0.07776049 -0.069007106
0.047475014 0.062397238 0.017965104 0.06468053 0.0058030444 0.059890226 0.044131503 -0.042287
-0.03104083 0.07170073 0.1080335 0.014025183 0.0039094565 -0.013598008 -0.01981263 0.06277979
-0.0009270873 -0.04499718 -0.022823386 0.10018272 0.058369573 0.03469146 0.089644216 -0.07589429
0.019444594 0.033761412 -0.017696785 0.05524776 0.068675905 0.0059409393 0.029194312 -0.03816448
0.036129944 0.049920008 0.045218993 0.038674466 -0.07351457 0.0448613 -0.0028037897 -0.051572733
-0.0022485815 -0.050762847 -0.074674 -0.06381784 -0.07378559 0.054673284 -0.06287775 -0.047882274
0.038675036 0.027625823 -0.06525705 0.046922095 0.05527036 -0.068336144 -0.068426654 0.06216345
-0.063433215 -0.059226487 0.019642616 0.07723212 0.0027894347 -0.0075717587 -0.020957427 0.055503167
0.06578819 -0.024569016 -0.05883439 0.018295476 -0.041692615 -0.034108646 0.0055725137 -0.045506477
0.066140935 -0.04321073 0.08354757 0.053501546 0.024776537 -0.020804653 0.06792579 0.0017979372
0.015727455 -0.034422427 -0.006664465 -0.037532054 -0.004148565 -0.07096445 0.01530532 0.06744536
0.07286263 0.081075095 0.033402607 -0.033696532 0.0039133877 0.009493401 0.002201136 0.055446837
-0.062098574 0.026879951 0.035089117 0.010873948 -0.070228994 0.03651454 0.07809258 -0.07058437
0.09446278 0.040535416 -0.064961575 -0.043518066 0.049097616 -0.025385218 0.09420595 0.01612186
0.07589892 -0.07453531 -0.032848455 0.016571227 -0.041831706 0.05551761 -0.034110334 0.032963045
-0.008143722 0.03265545 -0.07317414 0.09685302 -0.0049941493 -0.016823327 0.0074764923 0.026716145
-0.03126084 0.058833417 0.029539317 -0.03508203 0.039585203 0.0137606105 0.067492835 0.04145462
0.032915782 -0.039435923 0.0071000457 -0.055760026 -0.016240338 -0.009734061 -0.055143993 0.07371421
0.020663181 -0.06512871 -0.057053354 -0.04027388 -0.052192073 -0.03310099 -0.038192842 0.08742728
-0.0011089259 0.049441326 0.038929675 -0.026955811 -0.000888499 -0.07363934 -0.05179003 -0.04556494
0.062032394 -0.06145135 0.043576956 -0.038891476 -0.06499949 0.041980363 -0.034707405 0.087457135
-0.00862048 -0.029000565 0.06212304 -0.060062483 0.0642956 0.047569793 0.01683939 -0.0036153258
-0.046289057 0.07043429 -0.02104157 0.027447116 0.08469645 -0.050477944 -0.03067058 0.08091881
0.0070085046 0.00442989 0.03235862 -0.0043866676 -0.021361964 -0.031424057 0.025270617 0.017823907
0.07928418 -0.039236844 0.041204304 -0.0468372 0.04984519 -0.008092714 0.033998385 -0.0025128587
-0.07433226 -0.060554318 0.03924873 -0.019130213 0.079496436 0.096738465 0.04766452 0.08678269
0.013791168 -0.052057732 0.07649999 0.04061893 -0.005416058 -0.076580584 0.048010964 -0.020365948
0.07909356 -0.07298734 0.06734495 -0.0073418748 0.08344121 0.057707414 -0.013127256 0.08555741
-0.05442712 -0.03589494 -0.011801706 0.08584239 0.04070047 -0.04220951 -0.018724164 0.0719576

encoder.6.bias f4 [78]
00000000: b465 bf3d d5c2 93bd 5ceb 493d d66c f1bc
00000010: c4f5 b13c 4860 5e3b 8f3a 19bd 2104 06bd
00000020: 7542 9abc ccd0 7a3d e60c 2c3d 6a24 72bc
00000030: 3675 23bd 1513 6b3d 2418 143d 7b91 73bd
00000040: f087 86bc b81c 083d db1d 9cbb 630a d2bc
00000050: 343a 643d 0a5a 2b3c 972c e3bc 03b2 51bd
00000060: aae5 7e3c dd55 bf3d a027 273d 096b a2bc
00000070: cbaf 923d 1c05 d53c 3336 8a3d 6310 b93c
00000080: 639e 193d 009a db3b b6ae a6bd 0850 903d
00000090: 74cd 5b3d 3d79 c63c e31b 94bc 847c 8dbd
000000a0: 609f 8f3d 65f9 18bd 6a25 8a3d 064d 8ebd
000000b0: ab7b 693d b1da f8bc d4be 613d 5a52 81bc
000000c0: 3329 a7bd af86 853b 5327 39bd 6d54 8a3d
000000d0: c35d 193d d5a3 a7ba 8c81 b53c 3578 b4bd
000000e0: 87cb b63c 2521 a7bc ac52 e53c 78b2 58bd
000000f0: 6f95 8c3d 5c8e a83c c3fc c7bc 47a2 463d
00000100: 7def 76bc 3886 763d 02c3 20bd 6b53 253d
00000110: a415 733d 62f4 06bb aafe 63bd 0df0 64bc
00000120: 9e4f 9bbc ab1f 3a3d 4c7b 61bd 4268 5ebd
00000130: 2d91 723b c8b1 8b3d
0.0934557 -0.07214896 0.04929672 -0.029470842 0.021723635 0.00339319 -0.03740936 -0.03271878
-0.018830517 0.06123428 0.04200449 -0.01477919 -0.039906703 0.057391245 0.036155835 -0.059464913
-0.016422242 0.033230513 -0.0047643012 -0.025639718 0.05571957 0.010458479 -0.027731223 -0.051195156
0.015557686 0.09342549 0.040809274 -0.019826429 0.07162436 0.026003413 0.06748619 0.022590822
0.037504565 0.006701708 -0.08138792 0.07046515 0.053662732 0.024227733 -0.018079704 -0.06908515
0.0701282 -0.037347216 0.067454174 -0.06948285 0.057002705 -0.030377718 0.05511363 -0.015786339
-0.08162155 0.0040748934 -0.045203518 0.06754384 0.037442934 -0.0012789915 0.0221565 -0.0881199
0.022313846 -0.020401547 0.027993523 -0.052904576 0.0686444 0.020575695 -0.024412518 0.048494603
-0.015071747 0.060186595 -0.039248474 0.040362757 0.05934681 -0.002059244 -0.05566279 -0.013973248
-0.018958863 0.045440357 -0.055049226 -0.054298647 0.00370128 0.068210185

lv.0.weight f4 [2, 78]
00000000: 6ef8 db3c cb52 dcbd 998e 903d d5d7 84bd
00000010: 6a8c 91bd e2ca c63d aeac 9f3d 1cf8 233d
00000020: d491 d5bc 317f cebd 4f56 1bbd 616f d2bd
00000030: e91c c43d f920 48bd f27f f63d eb68 03be
00000040: 5e77 3cbc 1fcf dfbc b900 003d 7bd1 4d3c
00000050: 8b97 1c3b 8fde d23d 5abf 623d 8a0c 9bbc
00000060: f0d5 21bd 3749 da3c f7f3 da3c e21a 8c3c
00000070: d266 453d 11c2 a5bc 33f3 503d bdab 953c
00000080: ec5e cabd 9ba5 073d d093 efbd fec1 b03d
00000090: 5c1f 743d 4898 553c b2ea 9abd 6159 80bd
000000a0: 6b71 bfbc 247d c7bd a123 d8bd c699 063e
000000b0: 00ee 973c 2cd0 c03d f5d5 a13d 527b 62bc
000000c0: 4f57 babd 570b 2f3c 2e54 94bd f5c9 a1bd
000000d0: c2ba bf3d e725 efbd 92e2 efbd 2a83 80bd
000000e0: 0609 1f3d 4c82 0fba 3681 f7bd 707e 173d
000000f0: d0b1 023d 5137 4fbd b7bc 953d e029 9e3d
00000100: 9148 04bd c850 ed3d e03b cabd fd98 a7bd
00000110: 22cb e83c b62b 9abd 5d8a 5abc b177 c4bc
00000120: abf2 c33d c5f4 e33d a5e6 093d 0e0d 5dbc
00000130: 4c51 bcbb 0569 f73d 5590 c43d 1959 ccbb
00000140: 589c 873d 92c0 993d 530a 0cbc 65f5 03bd
00000150: 4b78 983d 4b3d b0bd b381 593d b7fd 553c
00000160: eb85 d7bd 7a7c c7bd e1c3 d03d ceaa f2ba
00000170: b729 c03b 9fec 8c3d 4680 f2bc 9774 b7bd
00000180: 27b2 1e3c 904a 82bd e95c a7bd 1264 493d
00000190: cb7a ab3d f777 f1bd 3c43 a33b 54be e53d
000001a0: 2e54 8cbd e48b 26bb 7414 b6bc d3ac 48bd
000001b0: c505 ff3d 5377 923d 9751 bc3c 0d99 203d
000001c0: 5182 193d ad93 e9bd 81ed 2c3d 4b3f cb3d
000001d0: f54a 673d 0c2e dfbd 1954 3c3c bc5c cbbc
000001e0: 6327 d6bd 9ff4 7abd c148 4e3d 65fe 9f3c
000001f0: 999e 83bd ef79 84bc 96ee 66bc 3b30 82bd
00000200: 69dc d5bd c086 80bc 9676 39bd f343 083d
00000210: 208e 523d 9c6f 30bd 566c e73d 0a49 1cbd
00000220: 366e f0bd e326 1cbd 0ed3 8b3d 3ffe 06be
00000230: db23 5ebc 0fbd db3d b920 9dbd 534c 553a
00000240: b840 f33d 6e3d 6e3d 4104 bc3d bda1 81ba
00000250: 4cc0 c6bd 77e4 73bd 004c d4bd afa2 70bd
00000260: 141e aabd b4d8 283d 5324 ef3d d9c2 fcbb
0.026851859 -0.10757979 0.07058448 -0.06486479 -0.0710686 0.097066656 0.07796608 0.040031537
-0.026070513 -0.100828536 -0.037924107 -0.1027515 0.09575827 -0.04885957 0.120361224 -0.12832992
-0.011503069 -0.027320443 0.03125069 0.012562151 0.0023894038 0.10296356 0.05535827 -0.018926878
-0.039510667 0.02664624 0.02672766 0.017102662 0.04819376 -0.02023414 0.051013183 0.018270368
-0.09881386 0.033116918 -0.11698115 0.08630751 0.05960022 0.013036795 -0.07564296 -0.06267048
-0.023369512 -0.097406656 -0.10553671 0.13144597 0.018546104 0.09414706 0.07902137 -0.013823347
-0.09098684 0.010683856 -0.072426185 -0.07899848 0.09361793 -0.11677151 -0.11713137 -0.062750176
0.038826965 -0.0005474433 -0.12085192 0.036985815 0.031907856 -0.050589863 0.07311385 0.07722831
-0.032295767 0.115876734 -0.098747015 -0.08183477 0.028417174 -0.075278684 -0.013338652 -0.023982855
0.095677696 0.111306705 0.033667225 -0.013491882 -0.005746996 0.12080578 0.09597842 -0.006236207
0.06621617 0.07507433 -0.008547383 -0.03221645 0.07444819 -0.08605441 0.053102206 0.013060979
-0.1052359 -0.09740539 0.10193611 -0.0018514039 0.005864348 0.068810694 -0.029602181 -0.089577846
0.0096860295 -0.06361878 -0.08172018 0.0491677 0.0837303 -0.117904596 0.00498238 0.11217943
-0.068519935 -0.002541297 -0.02222655 -0.048992943 0.12452272 0.071516655 0.022988124 0.03920846
0.037477795 -0.1140512 0.04221869 0.099241816 0.05646797 -0.108974546 0.01149466 -0.024824493
-0.10456731 -0.061268445 0.050362352 0.019530484 -0.064267345 -0.016171424 -0.014094969 -0.063568555
-0.104424305 -0.015689254 -0.045279108 0.033267926 0.051405072 -0.04307519 0.1129996 -0.038155593
-0.11739771 -0.038123023 0.06827365 -0.13182925 -0.013558353 0.107294194 -0.07672257 0.00081366784
0.118775785 0.058164053 0.09180499 -0.0009890121 -0.097046465 -0.059544053 -0.10366058 -0.058748897
-0.08306518 0.04122229 0.1167685 -0.0077136573

lv.0.bias f4 [2]
00000000: 4120 d23d 9cf8 9a3d
0.10260058 0.0756695

decoder.0.weight f4 [78, 2]
00000000: 3e27 f13e 1d66 203d 4c7d a13e 823e f33d
00000010: 6dd8 6d3d c582 983e 5851 eebe a78b a9be
00000020: 2b54 67bd c215 103f 44f1 de3e c939 c73e
00000030: 020e f63e 8667 8e3e e3e9 313e bafe f2be
00000040: a30c 99be b858 8f3e 4592 db3e f328 31bf
00000050: 12d8 243f 016a 023f ce8f cf3d 3dae 06bf
00000060: 2b48 123d 07d4 8b3e fbf1 7b3e dda2 afbe
00000070: ac29 31be 642d 9b3e 3f08 a53e fa7f 103f
00000080: 2b07 2dbf eed1 033f d0ef 0fbf d242 27bf
00000090: 54be 14bf a175 313f 390e 3dbe bbf4 2b3f
000000a0: 7f7b 68bd 0e26 22bf dcab a6be cf58 cebd
000000b0: 6178 353f 94d3 253f 1aaa 98be 993e 5e3e
000000c0: f493 9d3d d55e 2ebe b89b a2bd 5159 6d3e
000000d0: bb46 9cbe d0e1 2f3f 7191 253f 80d8 b23e
000000e0: d5ba 333f 37f2 c2be bd09 033f 0f50 dbbe
000000f0: 3f6c 803e 3d04 adbe 6c66 933e 9930 923d
00000100: 4f25 1a3f 7187 2abf ca1e 07bf df77 063f
00000110: 403e 263f f134 033f e263 c93e cc9e babe
00000120: 315c 15bf 59c1 3bbe 1306 c23e 42ef 193f
00000130: 6581 323f d8c2 7abe e80e 5e3e c1d9 083f
00000140: b2eb 513e 6b90 bf3d 8ea1 03be 66b5 073f
00000150: 18fc 403f d47b 3fbe c2a8 103f fd16 a6bd
00000160: 9459 a93e 50b3 093f 19ba 83be 880d cd3d
00000170: 0167 7f3e d9e4 2dbd 0069 5cbd ed4f 0e3f
00000180: 10b4 99be b368 3dbd 68e7 8ebd 3202 06bf
00000190: 523e aebe ea6f 0ebf d293 db3e 9a99 fdbe
000001a0: 4b4e b7be b5a7 293f 26c9 e0be ac4b 193f
000001b0: 7457 e93e dc14 a93d b0be b53e dcd7 04bf
000001c0: 674b 233f fd1c 18bf f309 163f dcf1 193f
000001d0: c20c 10be b4c0 533d 0d19 19be cb22 153e
000001e0: 14d9 dbbd 22ce 063e e346 773d 61d3 24bf
000001f0: ee52 743e f56a 703d 0555 d83e 03c9 543e
00000200: 486b 2f3f 4b43 773d 7f72 33bf 1cab 483e
00000210: 557b 08bf 6fa9 26be 4fdf 163f ebd7 8e3e
00000220: 83b5 1a3f ece3 173f 5c8c 1abf 5be3 8fbe
00000230: 1a51 6abe 4059 193f bca2 073f f933 2f3e
00000240: 981f 07bf 1722 5bbd 5ecb fd3e 3b3a 053d
00000250: 9154 7a3e dfc2 883e 2e87 1cbf 2a73 db3e
00000260: ff95 3ebe 8b8b 053f 0b25 55bd 9ac1 33bf
0.47100252 0.039159883 0.31540906 0.11877157 0.058067728 0.2978727 -0.46546435 -0.3311436
-0.056476753 0.562832 0.43543446 0.38911274 0.48057562 0.27813357 0.17374377 -0.47459966
-0.29892454 0.27997375 0.42885032 -0.6920311 0.643922 0.50943 0.101348504 -0.52609617
0.035713356 0.27310202 0.24604027 -0.34303942 -0.17301053 0.30308068 0.32232854 0.56445277
-0.6758906 0.514922 -0.562253 -0.65336335 -0.5810292 0.6932011 -0.18462457 0.67170304
-0.0567584 -0.63339317 -0.32552993 -0.10075533 0.7088681 0.6477597 -0.29817277 0.21703567
0.076942354 -0.17028363 -0.07939857 0.23178603 -0.30522713 0.6870394 0.6467505 0.349308
0.7020696 -0.3807542 0.51186734 -0.42834517 0.25082585 -0.33792296 0.2878908 0.071381755
0.6021318 -0.6661292 -0.52781355 0.5252666 0.64938736 0.5125266 0.39334017 -0.36449277
-0.583438 -0.18335475 0.3789526 0.60130703 0.6972869 -0.2448839 0.21685374 0.53457266
0.20500067 0.093537174 -0.12854597 0.5301117 0.75384665 -0.1869958 0.56507504 -0.081098534
0.33076155 0.53789234 -0.2572792 0.100123465 0.24941637 -0.042454574 -0.053811073 0.5559071
-0.3002019 -0.046242427 -0.06977731 -0.523471 -0.34031922 -0.5563952 0.42886215 -0.4953125
-0.3580192 0.66271526 -0.43903464 0.5988109 0.45574534 0.08255932 0.35497046 -0.51891875
0.6378693 -0.5941923 0.5860893 0.60134673 -0.14067367 0.051697448 -0.14950962 0.14564054
-0.10734764 0.13164571 0.060370337 -0.6438504 0.2385976 0.058695752 0.42252365 0.20779805
0.68523073 0.06036691 -0.7009658 0.19596523 -0.5331319 -0.16275571 0.5893449 0.27899107
0.60433215 0.59332156 -0.6037042 -0.28103146 -0.228825 0.5990181 0.5298269 0.1710967
-0.52782583 -0.053499307 0.4956922 0.032526236 0.24446322 0.26711175 -0.6114377 0.428613
-0.18611906 0.5216605 -0.05203728 -0.7021729

decoder.0.bias f4 [78]
00000000: 64d8 9b3e a3f0 a43e a700 49be f109 2a3f
00000010: e1df cabd 2d68 8cbe 9985 893e e4bd 8d3e
00000020: f414 1d3f 1f59 d8be 7938 653e 0187 61be
00000030: a35c 363e 1cef e23e 47df abbe c6f6 04bf
00000040: 3d5d 46be f59a 193f 31a8 76be 3b2f 2b3f
00000050: 1e91 3c3c 88c4 cabe 6c7a bdbd 9b5b 7e3d
00000060: d412 dfbd cb46 0b3f 8d90 30bf a37f 203e
00000070: 371d f0bd 561d e13e 6a68 debc efd0 f9be
00000080: ac05 263f d222 0b3f 44e8 71bd a88e 2cbf
00000090: b3da da3e f205 03bf ed9d 2ebf 88e7 86be
000000a0: 6f8d 98be f705 eabd 6aaf 163d ceda 5cbe
000000b0: f16f f53e 28bb 13bf ff2c d73e e73d 2bbf
000000c0: 7f37 2fbe 4c36 41be 965f 0b3f 412e d23e
000000d0: ee82 073d 5eaa b9be 47f7 e83d 66ae 3cbe
000000e0: bf65 14bf 98d2 373f cc6b ee3e cf6b 00bf
000000f0: 87dd 183f 6be7 893e 087f 34be c4b4 1fbe
00000100: 3358 b9be bf7e 29be caeb 353f 9b74 d1bc
00000110: 7934 da3e 2f08 2dbf 71b6 bdbe 9e94 2e3e
00000120: 746f 8a3e 2fde e03e 0d9e bdbe 859e 04bd
00000130: f726 9fba 8592 a1be
0.3043853 0.3221484 -0.19629155 0.6642142 -0.09905983 -0.2742323 0.2685974 0.27683938
0.61360097 -0.42255494 0.22384824 -0.22024156 0.17808776 0.4432305 -0.33568785 -0.51939046
-0.19371505 0.6000207 -0.24087597 0.6686894 0.011509208 -0.39603066 -0.09251866 0.06209908
-0.10892263 0.54404896 -0.68970567 0.1567369 -0.11724322 0.43967694 -0.027149398 -0.48792216
0.64852405 0.54350007 -0.059059396 -0.67405176 0.4274498 -0.51180947 -0.68209726 -0.2634852
-0.29795405 -0.11426919 0.03678838 -0.21567842 0.47936967 -0.5770745 0.42026517 -0.6689133
-0.17111014 -0.18868369 0.5444273 0.41050914 0.03308385 -0.36262792 0.113752894 -0.18425903
-0.5796775 0.71805716 0.46566617 -0.501645 0.59713024 0.2693437 -0.17626584 -0.155963
-0.36200103 -0.16552256 0.7106291 -0.025568297 0.42618158 -0.6759061 -0.37053254 0.1704888
0.27038157 0.43919513 -0.37034646 -0.03237774 -0.001214235 -0.31557098

decoder.3.weight f4 [154, 78]
00000000: 0aba 3a3d c007 6d3d 5fad bebb 39d3 b23d
00000010: 18e1 703d 2ecb b53d d7fa 3fbd 933c ecbc
00000020: d758 253d 757a 86bd 421b 73bd 48f9 193b
00000030: acf5 d23b a43c d9bd 661f 833c 9a20 d93d
00000040: 15ac dfbd 5581 c0bd c0ff 57bc 4738 d33d
00000050: a447 d13c 9b3b 5fbc f43b 9c3d afc3 50bc
00000060: 9b62 b6bc 6dbe 203d e0d2 8f3d 155f 5ebd
00000070: edf4 c13d b504 af3c cfd2 953c f59e 043d
00000080: 1f9e a0bd 13c8 bdbd 7de3 313c 2202 e23d
00000090: a6af 82bd d36c 583c c983 e23d 63d0 00ba
000000a0: 76f4 5d3c 045e 603d 09d4 71bd 8fd1 0f3e
000000b0: d663 503d cded 9e3c 48ed 67bd db8f 263c
000000c0: dfde 41bc 9313 ccbc fee9 943d 5708 56bd
000000d0: 512f f5bc a6ec a63d 4954 453b dd74 9d3c
000000e0: be31 a93d c5b7 873c aef9 a2bd 74d7 843d
000000f0: c36c bc3d 1535 d5bc cef5 883d 9bc0 88bd
00000100: 289e f83d 05df 99bd 9122 c7bd a74f e7bc
00000110: 71b0 833d aab1 583d c21f 80bd 5ab9 913d
00000120: 4a8f 483b 2607 65bd 513c 093e 19c0 90bd
00000130: 7679 cf3d 074f 34bc 3321 eebc d202 8abd
00000140: 6ad9 c0bd 4bf7 5dbd 11d1 fc3c 29e5 f43b
00000150: 161c a73d 0d39 af3c 89b2 1abd 2d57 71bd
00000160: fbeb 2fbd 04df 72bd 2ae4 c1bd 45be 68bd
00000170: eacd ec3c 1533 d73c 3703 5b3d 86ac 5f3d
00000180: e075 6fbd 60fe be3d 1f65 e13c 2fac b93d
00000190: c111 92bd c5d9 6fbd a79a 483c 3995 e23c
000001a0: 5eea 16bc 72e3 1bbc 6c71 e33b c376 28bd
000001b0: 0326 c638 a84e dcbd 808b 2a3d cb7e 15bd
000001c0: 3997 543d a907 2cbd 8840 fcbc 9daf ee3c
000001d0: 1d2e 33bd eb8f 083d 1fb3 a13d 7e2e e5bd
000001e0: 2d0c dcbd 1abd 803d 32b5 da3d e7ab 873d
000001f0: 1492 57bd fa41 cd3c a985 bbbc 7f6f a9bd
00000200: 30bb abbd 8903 ad3c 5f9c b8bd df6d a53d
00000210: 09ef debc cf4d 4dbd 1d68 43bd a7f1 98bd
00000220: 8af5 273a f2ae ac3d 23fc dfbd 247c c33d
00000230: 5271 abbd 6319 8e3d 8545 10bd 635d 7fbd
00000240: 302a b7bd 2de8 063d 6015 64bd bbe9 d9bc
00000250: 7d57 3bbd ac2f 7f3d 4f29 833c 36b8 a1bd
00000260: f38c e03d 7864 a0bd ce72 ea3c 2e11 e43d
00000270: a355 b1bd de1d abbd ab3c 893d 1002 993d
00000280: 2f8a 88bc 8c24 c73d 2ac3 90bd 0cc6 363d
00000290: 667f e43d 383c 17bd 2941 ddbd eee8 403d
000002a0: 61e2 a83d dc03 bdbd baac d13c 7b14 cf3d
000002b0: 7c55 a43d ab5c d43c 749d 053d 1235 3b3d
000002c0: 7fa4 ca3d bae1 683c 4c66 b7bd eb22 843d
000002d0: d8f8 913d be75 8a3d 5474 fb3b 43a4 053c
000002e0: 3240 993d a018 82bc 31eb 763d 5912 1ebd
000002f0: 00a2 7dbd 3621 ccbd eb2e 163c 0b42 5b3d
00000300: c46e 963d 7c06 863c 3697 e23d 20c0 943d
00000310: 60ea 293d 44f2 8bbd 9277 8c3d ba30 753d
00000320: 0119 c4bc 8043 333d bd26 babc f345 35bd
00000330: 2db5 e3bd fdf3 80bd 6eab e43d c29f b2bd
00000340: 5894 babc 05fc d8bd 5f85 92bd 53bf de3d
00000350: 7e7f 65bd 74dc a4bd 90e3 21bd 7bcd aabb
00000360: 8aa1 b0bd 468b 9b3d ca3b 6dbd caa7 793d
00000370: e400 023d fa4e cbbd 0285 323d db88 783d
00000380: 94bb 57bd cbd9 26bc ad7d c2bd fcdc dfbd
00000390: e558 ad3d 33d1 22bd 2f47 44bd 76ca cf3c
000003a0: 6ec3 82bb d6e5 f73c 92a4 af3d 0716 0c3d
000003b0: 04b2 b83d 1fc6 043d 7cc2 86bc 0569 f2bd
000003c0: ff8e 653d 8c1d ab3b be73 123e c434 9f3b
000003d0: 8319 ba3b 42c8 95bd 543e adbd f169 edbc
000003e0: a185 78bd aeb5 533d 1f30 62bd f231 9e3d
000003f0: b622 d53c 562f a63b f7aa ccbd 54ba 8a3d
0.045587577 0.05786872 -0.0058190073 0.08731694 0.058808416 0.08876644 -0.04687008 -0.028837478
0.040367927 -0.065663256 -0.059352167 0.002349453 0.006437978 -0.106072694 0.016006183 0.106019214
-0.10921494 -0.09399668 -0.013183534 0.103134684 0.025546856 -0.013625051 0.07628623 -0.012741967
-0.022263816 0.039244104 0.07022643 -0.054289896 0.09470544 0.02136455 0.018288998 0.032378156
-0.07842659 -0.09266677 0.01085746 0.11035563 -0.063811585 0.013209539 0.11060292 -0.00049138645
0.013547054 0.05477716 -0.059040103 0.14044784 0.05087646 0.019400502 -0.056622773 0.010166134
-0.011832922 -0.024911677 0.07271193 -0.052254047 -0.029929789 0.08150606 0.0030110052 0.019220764
0.08261441 0.01656712 -0.07957779 0.06486407 0.09200432 -0.026026288 0.066875085 -0.066773616
0.12139541 -0.07513241 -0.0972339 -0.028236223 0.06430138 0.05290381 -0.06256057 0.07115431
0.0030602985 -0.05591502 0.13401915 -0.0706789 0.10130589 -0.01100517 -0.029068565 -0.06738819
-0.094164684 -0.054190915 0.03086141 0.007473607 0.08159654 0.021389509 -0.03776792 -0.058921028
-0.042949658 -0.059294716 -0.09467347 -0.05682208 0.028906781 0.026269475 0.053469863 0.05460789
-0.058462024 0.09325862 0.027514039 0.090660445 -0.071322925 -0.05855729 0.012243903 0.027659046
-0.009211151 -0.009514676 0.006941011 -0.041128885 9.448456e-05 -0.1075719 0.041636944 -0.036497872
0.05190203 -0.041999493 -0.03079249 0.029136473 -0.04374515 0.033340376 0.07895493 -0.11190508
-0.1074451 0.06286068 0.106790915 0.06624585 -0.052629545 0.025055874 -0.022890883 -0.08273219
-0.083853126 0.02111985 -0.090142004 0.08077597 -0.02721359 -0.050123032 -0.047706712 -0.074679665
0.00064071326 0.08431806 -0.10936763 0.09545162 -0.083712235 0.06938436 -0.03522255 -0.06234492
-0.089435935 0.032936264 -0.055684447 -0.02660071 -0.045737732 0.062301323 0.016010908 -0.078964636
0.10964384 -0.07831663 0.028619196 0.11136089 -0.08658912 -0.08355306 0.067010246 0.074710965
-0.016667454 0.09723768 -0.070684746 0.044622466 0.11157112 -0.036922663 -0.10803444 0.04709714
0.08246303 -0.09229252 0.025595058 0.10111328 0.08024117 0.025923094 0.032620862 0.04570491
0.098946564 0.014213974 -0.089550585 0.064519726 0.07127541 0.06760739 0.0076737795 0.008156839
0.074829474 -0.015880883 0.06028289 -0.038591716 -0.061922073 -0.09967272 0.00916646 0.05352978
0.073453456 0.016360514 0.110639974 0.072632074 0.041483283 -0.06833318 0.06858744 0.059860922
-0.023937704 0.043765545 -0.02272355 -0.044256162 -0.11118541 -0.06296537 0.1116551 -0.08721878
-0.022775814 -0.10594944 -0.07154345 0.10876336 -0.05602979 -0.080498606 -0.03952366 -0.0052124835
-0.08624561 0.07594924 -0.057918347 0.06095103 0.03173913 -0.09927173 0.043583877 0.06067739
-0.052669123 -0.010183762 -0.09496627 -0.10930821 0.08464221 -0.03975029 -0.04791945 0.025365096
-0.003990582 0.030260962 0.08576311 0.034200694 0.09018329 0.032415505 -0.01645016 -0.11836437
0.056044575 0.005222028 0.14301965 0.004858585 0.0056793108 -0.07313587 -0.08459154 -0.02898118
-0.060674313 0.051686935 -0.055221673 0.0772437 0.026017528 0.005071561 -0.099935465 0.067738205

decoder.3.bias f4 [154]
00000000: 2e99 3a3d 89f9 32bc 9e3a c3bd f2bc 6abd
00000010: 2b0f e33c fda2 92bc 2c56 933d 85b5 7d3d
00000020: 8686 9fbd 390a ef3c c341 dabc 4f9b 5fbd
00000030: 261d f53d f075 bd3d 1d3b b33d b53f dc3d
00000040: 3cc6 54bd dcd7 aebd 5d2d ff3c 520e cd3d
00000050: 19b9 a93d 8253 28bd 1c8d 46bd da91 133e
00000060: b89c 08bb adc6 c83d d770 a53c 2fca 16bb
00000070: f255 f2bd c603 0ebc 0e22 8c3d a4ea 483c
00000080: 125a 983d 5d4e cf3b 8be2 69bd ad09 44ba
00000090: 2df1 98bd f1bb 5cbc 5241 2fbd c42f 2bbd
000000a0: e5c2 af3d 20e2 ac3d 237b d13d f1ce ae3a
000000b0: 22cc d93d 6fc2 b2bd 8b4a 803d 865c de3d
000000c0: 9c5f c7bd 680f f53d 5330 473d fa55 dbbc
000000d0: 24d3 0c3d 1371 acbd a05b 323d 9c07 85bb
000000e0: 7dc9 4b3d 5878 e33d a1ef d7bd ca7b 693d
000000f0: 010c 45bd f1bc 46bc e261 793d 32b0 b7bd
00000100: 8e61 773d e60f 883d a680 f13c 8d1d 3f3d
00000110: 5376 9d3b 1b37 423d 83b8 75bc 4cc4 0dbd
00000120: e89b 1ebd 02d4 ac3c 00a3 96bd e268 ae3c
00000130: 4c2e c5bd 9418 bb3d 34b0 bf3d c3b1 973d
00000140: 8bbd c6bd 141a 83bc 44ac 8fbc aab8 90bd
00000150: 9113 07bd 533f 14bd b5ca 2abc b655 c1bd
00000160: b302 f23d 6529 c63d 16a9 e13c 4c96 c8bc
00000170: e1fb 2ebd 87f9 8e3d 9cc7 ddbd ed58 bc3d
00000180: a116 d43d 9b7e d63c 3d8c a53d b59f b0bd
00000190: b0c5 93bd 602c d3bd db8c b43d e6ee 08bd
000001a0: 7d29 98bd 9a94 1abd be5d d6bd f9e9 b2bd
000001b0: 308c 8abd 814a d53d 2eaf a5bd d5c1 d0bd
000001c0: 35ac 87bd b5b4 9bbd a2c3 b53c 4431 92bd
000001d0: 3907 b73c cb7f bebd c022 493d 7be5 a5bd
000001e0: 659a 313d ac66 8fbd 1dc8 963c 7036 a5bc
000001f0: 2083 a53d 2b82 4c3d 0459 b13d a44a b13d
00000200: 2aec 27bd 202e 81bd 4fad 79bd f8c7 0f3e
00000210: e1fc cb3d 785d b83d 2da4 493d d906 1dbd
00000220: f61a eb3b 8add 983c 87ff d7bd 9d54 cabd
00000230: 5db6 b0bd 0603 a7bc a081 89bd 93c6 bfbd
00000240: ffbc efbc d92b 89bd 92b4 a93b 09ae a6bc
00000250: 33bf 4fbc cd36 f23c 5d4c a6bd a687 23bd
00000260: 11c8 653c 01d4 43bd
0.04555624 -0.010923752 -0.09532665 -0.0573091 0.027717194 -0.017899984 0.0719417 0.06194069
-0.0778933 0.02917968 -0.026642686 -0.054591473 0.1196845 0.092510104 0.08751509 0.10754339
-0.051946864 -0.08537266 0.03114956 0.10012497 0.08287258 -0.041095264 -0.048474416 0.14411107
-0.0020845365 0.098035194 0.020195408 -0.0023008694 -0.11832799 -0.008667892 0.06842433 0.012262974
0.074390545 0.0063264803 -0.057100814 -0.00074782484 -0.07467876 -0.013472543 -0.042786904 -0.0417936
0.08582095 0.084415674 0.102285646 0.001333682 0.10634638 -0.087284915 0.06264218 0.10857491
-0.09735033 0.11965829 0.04863007 -0.026774395 0.034381047 -0.08420005 0.04354441 -0.004059745
0.0497527 0.11106938 -0.105437525 0.05700282 -0.04810715 -0.012130008 0.060884364 -0.089691535
0.06039577 0.066436574 0.02948029 0.04665904 0.004805365 0.047415834 -0.014997604 -0.03461103
-0.038722903 0.021097187 -0.073553085 0.021290246 -0.09627971 0.09135547 0.0935978 0.07406952
-0.09704121 -0.016003646 -0.017538197 -0.07066472 -0.032977644 -0.036193203 -0.010424306 -0.09440176
0.11816921 0.09675864 0.027546447 -0.02448573 -0.04272068 0.06981187 -0.10829088 0.09196649
0.103558786 0.026183417 0.08083389 -0.08624212 -0.0721544 -0.10311198 0.088159285 -0.033430956
-0.07429788 -0.037739374 -0.10467099 -0.08736033 -0.0676502 0.10414601 -0.080900535 -0.101932205
-0.06624643 -0.076028265 0.022188012 -0.07138303 0.022342311 -0.09301718 0.049105406 -0.081004106
0.043360133 -0.07002005 0.018405968 -0.02016756 0.08081651 0.049928825 0.086595565 0.08656815
-0.040996708 -0.06307626 -0.060956296 0.14041126 0.09960342 0.09002203 0.049228836 -0.03833661
0.007174845 0.018660326 -0.10546785 -0.0987942 -0.08628533 -0.020387184 -0.06714177 -0.09364047
-0.029264925 -0.066978164 0.0051789964 -0.020346658 -0.012679863 0.029567147 -0.08120034 -0.039924286
0.01402475 -0.047809605
